perturbe/data/perturbations/less/pert_model.pt (torch_old, 22595 bytes, 20 tensors)

weight f4 [3, 3, 3, 3]
0	0x00000000	0.0
1	0x00000000	0.0
2	0x00000000	0.0
3	0x00000000	0.0
4	0x3f800000	1.0
5	0x00000000	0.0
6	0x00000000	0.0
7	0x00000000	0.0
8	0x00000000	0.0
9	0x00000000	0.0
10	0x00000000	0.0
11	0x00000000	0.0
12	0x00000000	0.0
13	0x00000000	0.0
14	0x00000000	0.0
15	0x00000000	0.0
16	0x00000000	0.0
17	0x00000000	0.0
18	0x00000000	0.0
19	0x00000000	0.0
20	0x00000000	0.0
21	0x00000000	0.0
22	0x00000000	0.0
23	0x00000000	0.0
24	0x00000000	0.0
25	0x00000000	0.0
26	0x00000000	0.0
27	0x00000000	0.0
28	0x00000000	0.0
29	0x00000000	0.0
30	0x00000000	0.0
31	0x00000000	0.0
32	0x00000000	0.0
33	0x00000000	0.0
34	0x00000000	0.0
35	0x00000000	0.0
36	0x00000000	0.0
37	0x00000000	0.0
38	0x00000000	0.0
39	0x00000000	0.0
40	0x3f800000	1.0
41	0x00000000	0.0
42	0x00000000	0.0
43	0x00000000	0.0
44	0x00000000	0.0
45	0x00000000	0.0
46	0x00000000	0.0
47	0x00000000	0.0
48	0x00000000	0.0
49	0x00000000	0.0
50	0x00000000	0.0
51	0x00000000	0.0
52	0x00000000	0.0
53	0x00000000	0.0
54	0x00000000	0.0
55	0x00000000	0.0
56	0x00000000	0.0
57	0x00000000	0.0
58	0x00000000	0.0
59	0x00000000	0.0
60	0x00000000	0.0
61	0x00000000	0.0
62	0x00000000	0.0
63	0x00000000	0.0
64	0x00000000	0.0
65	0x00000000	0.0
66	0x00000000	0.0
67	0x00000000	0.0
68	0x00000000	0.0
69	0x00000000	0.0
70	0x00000000	0.0
71	0x00000000	0.0
72	0x00000000	0.0
73	0x00000000	0.0
74	0x00000000	0.0
75	0x00000000	0.0
76	0x3f800000	1.0
77	0x00000000	0.0
78	0x00000000	0.0
79	0x00000000	0.0
80	0x00000000	0.0

bias f4 [3]
0	0x00000000	0.0
1	0x00000000	0.0
2	0x00000000	0.0

weight f4 [3, 3, 3, 3]
0	0xbc46b808	-0.012128837
1	0xbc76d532	-0.015065478
2	0xbc407550	-0.0117467195
3	0xbc84f27c	-0.016228907
4	0x3f7a9f72	0.97899544
5	0xbc86aee3	-0.016440814
6	0xbc4faa87	-0.012674934
7	0xbc8dcbc7	-0.017309083
8	0xbc453597	-0.012036703
9	0xbc07d9c1	-0.008291663
10	0xbc34b658	-0.011029802
11	0xbc14487b	-0.009050484
12	0xbc46e26e	-0.012138946
13	0xbc887f55	-0.01666228
14	0xbc5cec15	-0.013484021
15	0xbc1590a3	-0.009128722
16	0xbc5961b2	-0.013267921
17	0xbc0c3a56	-0.00855883
18	0xbba2c925	-0.004967826
19	0xbbcf2720	-0.0063218027
20	0xbb8dafe9	-0.0043239486
21	0xbc0a2423	-0.008431467
22	0xbc3ec78a	-0.0116442535
23	0xbc08d97d	-0.0083526345
24	0xbbb7fff1	-0.0056152274
25	0xbc089eb4	-0.008338619
26	0xbb8947cb	-0.0041894666
27	0xbb9ba5e1	-0.004749999
28	0xbb9026d3	-0.0043991595
29	0xbb84116c	-0.004030397
30	0xbc3944b2	-0.011307882
31	0xbc4caebd	-0.012492833
32	0xbc083ca2	-0.008315237
33	0xbbd87dbd	-0.006606786
34	0xbbcf42a6	-0.006325084
35	0xbbbfd188	-0.0058538355
36	0xbb7e45a0	-0.0038798824
37	0xbb81ca95	-0.0039609172
38	0xbb8a45ce	-0.004219747
39	0xbc3f60fb	-0.011680837
40	0x3f7c9681	0.9866715
41	0xbc12d5b8	-0.008962087
42	0xbbfd2fcb	-0.0077266446
43	0xbbf05f7f	-0.007335603
44	0xbbca87d2	-0.006180742
45	0xbc014140	-0.007889092
46	0xbbe6b6a3	-0.007040815
47	0xbbfe0523	-0.007752077
48	0xbc6f9bc5	-0.014624541
49	0xbc74ea9f	-0.014948516
50	0xbc429a1f	-0.011877566
51	0xbc38cb46	-0.011278933
52	0xbc265a77	-0.010153404
53	0xbc1af690	-0.009458199
54	0xbba347e4	-0.0049829353
55	0xbbf3a2a3	-0.0074351593
56	0xba5eaf51	-0.0008494752
57	0xbc0346f7	-0.008012525
58	0xbc38eda9	-0.011287131
59	0xbbc6e4d2	-0.006069758
60	0xbb868128	-0.004104752
61	0xbbb4e460	-0.0055203885
62	0xbb008c28	-0.001961479
63	0xbb5016f2	-0.0031751958
64	0xbbc5853f	-0.006027847
65	0xba44be08	-0.00075051235
66	0xbbd9cc61	-0.0066466783
67	0xbc25b5e6	-0.010114169
68	0xbbbcee1a	-0.0057656886
69	0xbb3e506d	-0.0029039637
70	0xbb8c8603	-0.0042884364
71	0xbaeb3aaf	-0.0017946566
72	0x3a435719	0.0007451638
73	0xbb52fa92	-0.0032192809
74	0x398f1286	0.00027288886
75	0xbb41b7fb	-0.0029559124
76	0x3f7e21e8	0.99270487
77	0xbb89d018	-0.004205715
78	0x3a331f33	0.0006832957
79	0xbb21ee51	-0.0024708698
80	0xb959769c	-0.00020738918

bias f4 [3]
0	0x3d4dda9a	0.050257303
1	0x3d19ea67	0.03757706
2	0x3d1786ec	0.036993906

weight f4 [3, 3, 3, 3]
0	0xbc3d9ab7	-0.011572531
1	0xbc6e0982	-0.014528634
2	0xbc34ee71	-0.011043177
3	0xbc812fdb	-0.01576989
4	0x3f7ab473	0.97931594
5	0xbc821745	-0.015880236
6	0xbc40fac4	-0.011778537
7	0xbc88f89a	-0.016720105
8	0xbc392ab0	-0.011301681
9	0xbbe1b613	-0.00688816
10	0xbc1fadde	-0.009746043
11	0xbbfc0316	-0.0076907976
12	0xbc31c702	-0.01085067
13	0xbc808652	-0.015689049
14	0xbc49b75c	-0.012311783
15	0xbbf07490	-0.007338114
16	0xbc42fa81	-0.011900545
17	0xbbe62c62	-0.007024334
18	0xbb6662aa	-0.0035154023
19	0xbb9f74df	-0.004866227
20	0xbb33fbd4	-0.0027463334
21	0xbbe74520	-0.007057801
22	0xbc2b1980	-0.010443091
23	0xbbe4ac31	-0.0069785346
24	0xbb707410	-0.0036690272
25	0xbbd79d27	-0.0065800133
26	0xbb1ba474	-0.0023749145
27	0xbb6810c1	-0.0035410377
28	0xbb53defc	-0.0032328954
29	0xbb402a70	-0.002932217
30	0xbc286211	-0.010277287
31	0xbc3f706d	-0.011684519
32	0xbbe99eaa	-0.00712951
33	0xbba8f99c	-0.005156709
34	0xbba4ca20	-0.005028978
35	0xbb92630b	-0.0044673732
36	0xbb5838d6	-0.0032992861
37	0xbb655882	-0.0034995382
38	0xbb79cc94	-0.0038116323
39	0xbc3acddd	-0.011401621
40	0x3f7c97a6	0.986689
41	0xbc0cbbb7	-0.008589677
42	0xbbe55d79	-0.006999668
43	0xbbde5bac	-0.0067858305
44	0xbbb4a7cf	-0.0055131684
45	0xbbe1b1d1	-0.0068876524
46	0xbbc5824d	-0.006027496
47	0xbbdccd25	-0.0067383223
48	0xbc635716	-0.013875743
49	0xbc6a809e	-0.014312891
50	0xbc34e4f6	-0.011040917
51	0xbc255c2f	-0.010092779
52	0xbc127574	-0.008939136
53	0xbc05c57a	-0.008164758
54	0xbb842ddc	-0.004033787
55	0xbbd78289	-0.0065768403
56	0x38ffdbfc	0.00012200323
57	0xbbe5e5fa	-0.0070159407
58	0xbc296b6e	-0.010340555
59	0xbba8b458	-0.005148452
60	0xbb49e28e	-0.0030805203
61	0xbb9008fe	-0.004395603
62	0xba5364c0	-0.0008064024
63	0xbb29d9f8	-0.0025917273
64	0xbbb4fa79	-0.0055230227
65	0xb8d6a961	-0.000102358645
66	0xbbc44a77	-0.005990322
67	0xbc1c3c81	-0.00953591
68	0xbba979ba	-0.0051719816
69	0xbb0f7e39	-0.0021895303
70	0xbb68031c	-0.0035402244
71	0xba8775b4	-0.0010334761
72	0x3a470acc	0.00075928564
73	0xbb5508c2	-0.003250644
74	0x39b75756	0.0003496955
75	0xbb43c6b7	-0.0029873082
76	0x3f7e1d48	0.9926343
77	0xbb8b8894	-0.0042582247
78	0x3a5ecd5c	0.0008499229
79	0xbb15e92c	-0.0022874577
80	0xb7d79c5c	-2.5702808e-05

bias f4 [3]
0	0x3d5ffd8f	0.05468517
1	0x3d2d9fd0	0.042388737
2	0x3d21a43b	0.039463263

weight f4 [3, 3, 3, 3]
0	0xbc2e3f5d	-0.010635224
1	0xbc5e7861	-0.013578505
2	0xbc23bf23	-0.009994301
3	0xbc7473b9	-0.014920169
4	0x3f7ae5de	0.98007
5	0xbc74d1c1	-0.014942587
6	0xbc2ea345	-0.010659044
7	0xbc8187ed	-0.015811885
8	0xbc28afb0	-0.010295793
9	0xbbac47b9	-0.0052575734
10	0xbc066f36	-0.008205226
11	0xbbc84c1b	-0.006112588
12	0xbc189cc2	-0.009314718
13	0xbc6c608e	-0.014427317
14	0xbc3276e6	-0.010892605
15	0xbbb1c34f	-0.005424894
16	0xbc2975e1	-0.010343046
17	0xbbaf06f4	-0.005341405
18	0xbaf0b784	-0.0018365239
19	0xbb510d92	-0.0031898958
20	0xba81063c	-0.0009843777
21	0xbbb22849	-0.0054369313
22	0xbc138205	-0.009003167
23	0xbbb0d4af	-0.0053964476
24	0xbacaf234	-0.0015483559
25	0xbb979c59	-0.0046267924
26	0xb9c7ddb0	-0.00038121408
27	0xbb01fd62	-0.0019834866
28	0xbae06470	-0.0017119776
29	0xbac63e97	-0.0015124854
30	0xbc10fe80	-0.00884974
31	0xbc2b360c	-0.0104498975
32	0xbbb74cd6	-0.0055938764
33	0xbb6221ae	-0.0034504938
34	0xbb6149fa	-0.003437637
35	0xbb36a487	-0.0027869062
36	0xbb22e7c6	-0.0024857386
37	0xbb37279d	-0.0027947195
38	0xbb4f9776	-0.003167597
39	0xbc3177a8	-0.010831751
40	0x3f7cad4b	0.98701924
41	0xbc02684e	-0.0079594385
42	0xbbc669ec	-0.0060551073
43	0xbbc4c397	-0.0060047614
44	0xbb97cf67	-0.0046328786
45	0xbbb9ddb4	-0.005672181
46	0xbb9d4648	-0.004799638
47	0xbbb4af8f	-0.0055140923
48	0xbc53b34b	-0.012921165
49	0xbc5cdac7	-0.013479895
50	0xbc243089	-0.010021337
51	0xbc0e98e7	-0.008703447
52	0xbbf64a69	-0.0075161946
53	0xbbdab2f0	-0.006674163
54	0xbb3a6248	-0.0028439928
55	0xbbb3c321	-0.0054859077
56	0x3aa08a64	0.0012248275
57	0xbbbe49b8	-0.005807128
58	0xbc161df6	-0.009162417
59	0xbb84a641	-0.0040481393
60	0xbafe410c	-0.0019398048
61	0xbb4f092e	-0.0031591165
62	0x39e0ea89	0.00042899352
63	0xbaf3a557	-0.0018588704
64	0xbb9f89d8	-0.004868727
65	0x3a24ace6	0.00062818674
66	0xbbaa62f1	-0.005199783
67	0xbc103008	-0.008800514
68	0xbb91de36	-0.0044515384
69	0xbab99f0f	-0.0014161783
70	0xbb335684	-0.00273648
71	0xb9738723	-0.00023224628
72	0x3a667552	0.0008791286
73	0xbb4fd8b2	-0.0031714854
74	0x3a0550f5	0.0005085611
75	0xbb3e279b	-0.0029015306
76	0x3f7e20d5	0.9926885
77	0xbb89afe2	-0.004201875
78	0x3a8fcaf9	0.0010970525
79	0xbb04bac9	-0.0020252934
80	0x396995fc	0.00022276485

bias f4 [3]
0	0x3d6f931b	0.0584899
1	0x3d3fb1b3	0.046800327
2	0x3d2a9dff	0.041654583

weight f4 [3, 3, 3, 3]
0	0xbc02cbf5	-0.007983197
1	0xbc2fceb3	-0.010730433
2	0xbbe10b52	-0.0068678046
3	0xbc41c4dd	-0.011826721
4	0x3f7b38ed	0.98133737
5	0xbc38d9ce	-0.011282397
6	0xbbd26393	-0.0064205616
7	0xbc4bd6bb	-0.012441332
8	0xbba3f94e	-0.0050040847
9	0xbb0b21aa	-0.0021229782
10	0xbb90e772	-0.0044221217
11	0xbb6e8153	-0.0036393001
12	0xbbc18d89	-0.005906765
13	0xbc4c9f70	-0.012489185
14	0xbc0030bb	-0.007824118
15	0xbb25b4d3	-0.0025284782
16	0xbbf00ef9	-0.0073260036
17	0xbaba8036	-0.0014228884
18	0x39d6ef3a	0.00040995498
19	0xba9182cc	-0.0011101603
20	0x3996807f	0.00028705967
21	0xbb94d6c2	-0.0045422027
22	0xbc09f64b	-0.008420537
23	0xbb431732	-0.0029768464
24	0x39cf2e49	0.00039516602
25	0xbb292a43	-0.0025812543
26	0x3b574a0c	0.0032850532
27	0xbbb6eb63	-0.0055822595
28	0xbbbdcf74	-0.0057925526
29	0xba9b6657	-0.0011856061
30	0xbc01f198	-0.007931136
31	0xbc40c45e	-0.011765568
32	0xbb6ea6b5	-0.0036415283
33	0xb90c8b66	-0.0001340337
34	0xba1f8719	-0.00060855
35	0x3a38bd25	0.00070472277
36	0xbb42f205	-0.0029746306
37	0xbb9316f5	-0.0044888207
38	0xbb62b615	-0.0034593393
39	0xbc136551	-0.008996324
40	0x3f7cde54	0.98776746
41	0xbbaecb40	-0.005334288
42	0xbbaf28e6	-0.0053454516
43	0xbb71c4ac	-0.0036890907
44	0xbaca1fd3	-0.0015420861
45	0xbb38b7b9	-0.002818568
46	0xbb922d6a	-0.00446098
47	0xbb4c3367	-0.0031158568
48	0xbc2fabac	-0.010722082
49	0xbc5b9c33	-0.01340394
50	0xbbf434fe	-0.007452606
51	0xbb86ba84	-0.00411159
52	0xbb75585c	-0.00374367
53	0xba53db8b	-0.00080817257
54	0x3b355161	0.0027666914
55	0xba11cf55	-0.0005562206
56	0x3ac28eb9	0.001484356
57	0xbb0148bc	-0.001972719
58	0xbbc20b8c	-0.0059217867
59	0xb9e2e0d6	-0.00043273595
60	0x3a4c7ed3	0.00078008807
61	0x3aa146d4	0.0012304434
62	0x3aea57b9	0.0017878927
63	0x3b192fd6	0.002337446
64	0xbac5ff89	-0.0015106063
65	0xbb5f9225	-0.0034114209
66	0xbb3d28c7	-0.0028863417
67	0xbbde9853	-0.006793061
68	0xbaf5d038	-0.0018754071
69	0x3943e4a2	0.00018681822
70	0x390bfa2b	0.00013349268
71	0xb89a5a8b	-7.360157e-05
72	0x3b30ff19	0.0027007519
73	0xbbbe2e3b	-0.005803851
74	0xbc09836f	-0.008393153
75	0xbb8a23f6	-0.0042157127
76	0x3f7e24d6	0.9927496
77	0xbbc3c7e8	-0.0059747584
78	0xbc069b54	-0.008215744
79	0xbc08836a	-0.008332113
80	0xbb90262c	-0.0043990817

bias f4 [3]
0	0x3da5b542	0.08091213
1	0x3d9e3e33	0.07726707
2	0x3d31ba90	0.04339081

weight f4 [3, 3, 3, 3]
0	0xbb90acc0	-0.0044151247
1	0xbbe86787	-0.0070924195
2	0xbb52289c	-0.0032067662
3	0xbc09564c	-0.008382391
4	0x3f7c1256	0.9846548
5	0xbbfe5de8	-0.0077626593
6	0xbb3e72ea	-0.0029060193
7	0xbc1351ed	-0.008991701
8	0xbaba804c	-0.0014228909
9	0x3afde9f4	0.0019372092
10	0xb9b0e187	-0.00033737367
11	0x39a0b7d0	0.0003065453
12	0xbaf5d430	-0.0018755253
13	0xbc0d5a79	-0.008627527
14	0xbb810156	-0.003936927
15	0x3acd81fb	0.0015678996
16	0xbb5b424a	-0.003345626
17	0x3b2b8dda	0.002617708
18	0x3b40b9c4	0.00294076
19	0x3ab66624	0.0013915938
20	0x3b3154f1	0.0027058686
21	0xbb0ebbcc	-0.0021779416
22	0xbbcb439a	-0.006203127
23	0xba2e4c10	-0.00066489074
24	0x3b4686fb	0.0030292857
25	0xb8a6e2ee	-7.957766e-05
26	0x3bbf146a	0.005831291
27	0xbabdc094	-0.0014476948
28	0xbad792dd	-0.0016446967
29	0x3b35cbfe	0.0027739997
30	0xbb7d9dfb	-0.00386989
31	0xbc003a90	-0.007826462
32	0x39a1d7d8	0.0003086913
33	0x3b822650	0.0039718524
34	0x3b6a2a72	0.0035730866
35	0x3b9b5ad5	0.0047410526
36	0xb937585d	-0.00017485158
37	0xbae0f852	-0.0017163849
38	0xba702912	-0.00091613934
39	0xbbce56a9	-0.006296952
40	0x3f7d86cd	0.99033815
41	0xbb366758	-0.0027832594
42	0xbb29de33	-0.0025919795
43	0xba64c157	-0.00087263196
44	0x3a931197	0.0011220452
45	0xba31b289	-0.0006778618
46	0xbb215566	-0.0024617552
47	0xbaa3f249	-0.001250812
48	0xbc116a5e	-0.008875458
49	0xbc40c74e	-0.011766268
50	0xbbbc71da	-0.005750877
51	0xbb00690d	-0.0019593865
52	0xbadb5af4	-0.001673548
53	0x3aa5afd8	0.0012640906
54	0x3b963cc3	0.00458488
55	0x3ab36632	0.0013687073
56	0x3b64aa0d	0.0034891397
57	0xb84561a0	-4.705938e-05
58	0xbb819371	-0.003954344
59	0x3ad024d9	0.0015880122
60	0x3b37a89f	0.002802409
61	0x3b569ca5	0.0032747176
62	0x3b7a8151	0.0038224051
63	0x3b7de923	0.0038743697
64	0x38a11275	7.680516e-05
65	0xbaec5896	-0.0018031772
66	0xba9a00ee	-0.0011749545
67	0xbba7077e	-0.0050973287
68	0xb9124888	-0.00013950665
69	0x3b054649	0.0020336083
70	0x3b01436c	0.0019724024
71	0x3ae588f3	0.0017512128
72	0x3b47359b	0.0030396942
73	0xbbb4624d	-0.0055048824
74	0xbc049edc	-0.008094516
75	0xbb812110	-0.003940709
76	0x3f7e3611	0.9930125
77	0xbbb99662	-0.005663679
78	0xbc01725c	-0.007900801
79	0xbc033a5e	-0.008009521
80	0xbb83b9ab	-0.004019936

bias f4 [3]
0	0x3da6dc7e	0.08147524
1	0x3da0d1ad	0.078524925
2	0x3d38aed2	0.045088597

weight f4 [3, 3, 3, 3]
0	0xba59055c	-0.00082786917
1	0xbb5f9829	-0.0034117794
2	0x39c30bfd	0.0003720223
3	0xbba1711d	-0.004926814
4	0x3f7cf47e	0.98810565
5	0xbb8cbb2e	-0.0042947745
6	0x39d631c3	0.00040854336
7	0xbbb71949	-0.005587731
8	0x3afa79eb	0.0019109821
9	0x3bc28e1d	0.0059373514
10	0x3b754846	0.0037427112
11	0x3b8ae14f	0.0042382847
12	0x3b0ce005	0.002149583
13	0xbb97c0a5	-0.0046311193
14	0xb798401c	-1.8149665e-05
15	0x3bb4ca0b	0.0055172495
16	0x3a1b7d20	0.0005931426
17	0x3bd41bca	0.0064730393
18	0x3bb247c1	0.0054406826
19	0x3b805ce7	0.003917325
20	0x3ba78f43	0.0051135137
21	0x39a424ae	0.00031307846
22	0xbb7b88a6	-0.003838101
23	0x3ae16742	0.0017196911
24	0x3bba7a9c	0.0056908857
25	0x3b2001c9	0.0024415127
26	0x3c087e21	0.008330853
27	0x3b35010f	0.002761904
28	0x3b29a087	0.0025883035
29	0x3bddaaba	0.006764737
30	0x3945be60	0.00018858304
31	0xbb768a57	-0.0037619078
32	0x3b8a0e20	0.0042131096
33	0x3c0126b1	0.00788276
34	0x3bf8e98c	0.0075962003
35	0x3c0e0119	0.008667254
36	0x3b2dccd8	0.0026519801
37	0x3a96bbd0	0.0011500064
38	0x3ae9aac9	0.0017827387
39	0xbb66e144	-0.0035229484
40	0x3f7e3a7b	0.99307984
41	0xb9054b6a	-0.00012711962
42	0x393eb959	0.0001818886
43	0x3affedb9	0.0019525803
44	0x3b7a6aef	0.003821071
45	0x3ac0ee79	0.0014719508
46	0xb9d117a1	-0.0003988119
47	0x3a32b24b	0.0006816729
48	0xbbe2af0e	-0.006917841
49	0xbc23ca36	-0.009996941
50	0xbb817af1	-0.0039514233
51	0x3984b757	0.000253136
52	0x39ebfa32	0.00045009103
53	0x3b5c6b79	0.0033633395
54	0x3bd85d5b	0.0066029257
55	0x3b62e358	0.003462037
56	0x3bb68c53	0.005570927
57	0x3afff98e	0.0019529329
58	0xbaf9223e	-0.0019007397
59	0x3b6d15f2	0.003617641
60	0x3b9bacbe	0.004750817
61	0x3babc905	0.0052424693
62	0x3bbd854f	0.005783714
63	0x3bb6f8f3	0.0055838763
64	0x3aef2b43	0.0018247146
65	0xb8956af4	-7.124795e-05
66	0x3a26e3fa	0.00063663686
67	0xbb576f4a	-0.003287273
68	0x3ad8f0eb	0.0016551291
69	0x3b7d4c7c	0.0038650325
70	0x3b78988c	0.0037932722
71	0x3b698930	0.0035634749
72	0x3b5f64ba	0.0034087137
73	0xbba8cc71	-0.0051513244
74	0xbbfe8334	-0.0077671055
75	0xbb6c2864	-0.0036034817
76	0x3f7e4ba2	0.99334157
77	0xbbae4605	-0.0053184056
78	0xbbf824e9	-0.0075727594
79	0xbbfbbccb	-0.007682418
80	0xbb70296b	-0.003664578

bias f4 [3]
0	0x3da59934	0.08085862
1	0x3da07c0a	0.078361586
2	0x3d3b980d	0.045799304

weight f4 [3, 3, 3, 3]
0	0x3b2d590a	0.0026450776
1	0x3947f235	0.00019068348
2	0x3b75d4ab	0.0037510793
3	0xbadf5dd0	-0.0017041508
4	0x3f7dd1c4	0.991482
5	0xba8ebd89	-0.0010890226
6	0x3b64dbb3	0.003492099
7	0xbb13720f	-0.0022498404
8	0x3ba316fc	0.004977105
9	0x3c1ec12b	0.0096896095
10	0x3bfac5b9	0.007652965
11	0x3c03087c	0.007997628
12	0x3bbef92c	0.0058280434
13	0xba505fb4	-0.0007948831
14	0x3b715e95	0.0036830057
15	0x3c15ed9d	0.00915089
16	0x3b8dc4ca	0.0043264376
17	0x3c2378a3	0.0099774925
18	0x3c02bcac	0.007979553
19	0x3bd6f925	0.006560462
20	0x3bfab782	0.0076512704
21	0x3b39ff3b	0.002838089
22	0xbab253e9	-0.001360533
23	0x3b888768	0.0041665323
24	0x3c0b8a28	0.008516826
25	0x3ba72d7c	0.0051018577
26	0x3c3133fe	0.010815619
27	0x3bda037f	0.006653249
28	0x3bd5f70f	0.006529696
29	0x3c2b547c	0.010457154
30	0x3b8043da	0.0039143385
31	0x38b40962	8.5848165e-05
32	0x3bfe832e	0.0077671027
33	0x3c397713	0.011319893
34	0x3c36db39	0.011160665
35	0x3c47a004	0.012184147
36	0x3bacb87d	0.005271016
37	0x3b80c563	0.0039297803
38	0x3b926cbe	0.0044685295
39	0xba6b7e02	-0.0008983315
40	0x3f7eea20	0.99575996
41	0x3b1d7be7	0.002403015
42	0x3b361e0a	0.00277889
43	0x3b95dce3	0.004573451
44	0x3bcf3ab9	0.006324139
45	0x3b6ff91f	0.0036616994
46	0x3aead5c9	0.0017916496
47	0x3b341df9	0.0027483685
48	0xbb9a924c	-0.004717147
49	0xbc02b4b6	-0.007977655
50	0xbb050336	-0.0020296103
51	0x3b322069	0.0027179962
52	0x3b392c82	0.0028255288
53	0x3bb41219	0.0054953215
54	0x3c00454f	0.007829024
55	0x3b9cda14	0.004786739
56	0x3b9ffbaf	0.004882298
57	0x3b425122	0.002965041
58	0xba64e1da	-0.0008731164
59	0x3b95e080	0.0045738816
60	0x3b9fc95f	0.0048763
61	0x3bce471c	0.006295098
62	0x3bdd3066	0.0067501543
63	0x3bdd9b3c	0.00676289
64	0x3b4fa17b	0.0031681943
65	0xbb4abda1	-0.0030935782
66	0x3af8694c	0.0018952279
67	0xbb069a5a	-0.0020538778
68	0x3b3fa09e	0.0029240022
69	0x3ba17eb6	0.004928435
70	0x3babf37c	0.0052475315
71	0x3ba43bb1	0.0050119986
72	0x3b673a2b	0.0035282474
73	0xbbfe0f38	-0.007753279
74	0xbc68b25f	-0.014202683
75	0xbb9db7b7	-0.0048131603
76	0x3f7e540e	0.9934701
77	0xbbda139c	-0.0066551697
78	0xbc69067b	-0.0142227365
79	0xbc4f47c5	-0.0126513885
80	0xbbd281e3	-0.006424175

bias f4 [3]
0	0x3da2baaa	0.079457596
1	0x3d9dc5d7	0.077037506
2	0x3d1b6818	0.03794107

weight f4 [3, 3, 3, 3]
0	0x3bb38cf1	0.005479448
1	0x3b4f652b	0.0031645994
2	0x3bd30ee8	0.006440986
3	0x3a9378eb	0.0011251246
4	0x3f7e9d27	0.99458545
5	0x3ad93dca	0.0016574201
6	0x3bc176cf	0.0059040557
7	0x3a073721	0.0005158056
8	0x3beeea89	0.0072911424
9	0x3c51d64b	0.012807439
10	0x3c336ce1	0.010951252
11	0x3c3774ce	0.011197282
12	0x3c14d7dd	0.009084669
13	0x3b335bd3	0.0027367964
14	0x3be56523	0.007000582
15	0x3c4709b7	0.012148312
16	0x3bf5b2b2	0.007498109
17	0x3c5229ba	0.012827331
18	0x3c260e31	0.010135219
19	0x3c11f2bf	0.008907973
20	0x3c22c0d1	0.009933666
21	0x3bafa662	0.0053604105
22	0x3a8d1c7d	0.0010765936
23	0x3bd7d73c	0.0065869372
24	0x3c3759a9	0.01119081
25	0x3bf6c9e8	0.0075313933
26	0x3c578bc6	0.013155883
27	0x3c241524	0.010014806
28	0x3c2282d1	0.009918884
29	0x3c5e585b	0.01357087
30	0x3be94cc4	0.007119747
31	0x3b668421	0.003517397
32	0x3c3059f1	0.010763631
33	0x3c671bdc	0.014105763
34	0x3c6688b8	0.014070682
35	0x3c773b7f	0.015089869
36	0x3bf68290	0.0075228885
37	0x3bceff07	0.0063170227
38	0x3bdfccce	0.0068298345
39	0x3ab9a108	0.0014162371
40	0x3f7f8af4	0.998214
41	0x3b9856b3	0.004649007
42	0x3ba3f116	0.005003105
43	0x3bde942b	0.0067925653
44	0x3c0ae78d	0.008478058
45	0x3bb3369a	0.0054691555
46	0x3b6f6d76	0.003653375
47	0x3b9411f4	0.0045187417
48	0xbb383c54	-0.002811213
49	0xbbcc94d7	-0.006243329
50	0xb9a81408	-0.00032058381
51	0x3b9f35e9	0.0048587215
52	0x3b9cfef5	0.0047911354
53	0x3bf0a78b	0.0073441914
54	0x3c1f6fdd	0.00973126
55	0x3bd91219	0.006624472
56	0x3bd648aa	0.006539424
57	0x3b94c811	0.0045404513
58	0x3a4b19d9	0.0007747687
59	0x3bc35954	0.0059615765
60	0x3bc4a41f	0.00600101
61	0x3bf3e410	0.0074429587
62	0x3c00fdf6	0.007873049
63	0x3c0a0963	0.0084250895
64	0x3b9d096e	0.004792384
65	0xbac25323	-0.0014825802
66	0x3b62cab0	0.0034605674
67	0xb9fa6d3f	-0.0004776511
68	0x3b8d2ce4	0.00430833
69	0x3bcbad59	0.006215733
70	0x3bd69cb6	0.006549443
71	0x3bcea40f	0.0063061784
72	0x3b6c9434	0.0036099078
73	0xbbf8d4e8	-0.00759374
74	0xbc6618c8	-0.014043994
75	0xbb98d9c9	-0.004664634
76	0x3f7e5db9	0.9936176
77	0xbbd632e8	-0.00653683
78	0xbc66ca71	-0.014086352
79	0xbc4db286	-0.01255477
80	0xbbd1076a	-0.0063790577

bias f4 [3]
0	0x3d9e2c13	0.0772325
1	0x3d98dd1e	0.0746405
2	0x3d171728	0.036887318

weight f4 [3, 3, 3, 3]
0	0x3bfbae70	0.0076807067
1	0x3bb505ac	0.005524358
2	0x3c0ae1d8	0.008476697
3	0x3b611718	0.003434604
4	0x3f7f4eb6	0.9972948
5	0x3b7c8a4a	0.0038534575
6	0x3bfd5ac5	0.007731768
7	0x3b369c74	0.002786425
8	0x3c12c9d5	0.008959253
9	0x3c79a9dd	0.0152382525
10	0x3c5e5fe1	0.013572664
11	0x3c614515	0.013749381
12	0x3c3fea6a	0.0117136035
13	0x3bbcb2a5	0.005758601
14	0x3c1f9e3e	0.009742318
15	0x3c6d0214	0.0144658275
16	0x3c24f4cc	0.01006813
17	0x3c754a30	0.014971301
18	0x3c457397	0.012051485
19	0x3c35793b	0.011076267
20	0x3c45e2e2	0.012078019
21	0x3bfee460	0.0077786893
22	0x3b62ce5d	0.0034607865
23	0x3c1246f5	0.00892805
24	0x3c6060bc	0.013694938
25	0x3c20896c	0.009798389
26	0x3c7a90b0	0.015293285
27	0x3c4f21ce	0.012642337
28	0x3c4e0a9b	0.012575771
29	0x3c82d7b2	0.015971992
30	0x3c1e77f3	0.009672153
31	0x3bd0d69a	0.0063732387
32	0x3c56863d	0.013093528
33	0x3c8488f2	0.016178582
34	0x3c850da4	0.016241856
35	0x3c8d8c67	0.017278863
36	0x3c17e3a3	0.009270581
37	0x3c06d198	0.008228682
38	0x3c0fcb8a	0.008776555
39	0x3b5930e1	0.0033140706
40	0x3f800ab8	1.0003271
41	0x3bd4a7b6	0.0064897193
42	0x3bdde05f	0.006771132
43	0x3c0b8a29	0.008516827
44	0x3c2697cb	0.010168026
45	0x3be875f5	0.0070941397
46	0x3bb173bc	0.005415408
47	0x3bccd413	0.006250867
48	0xba788bab	-0.00094812614
49	0xbb936cef	-0.00449907
50	0x3ab48c14	0.0013774657
51	0x3be16858	0.006878894
52	0x3bd92334	0.006626511
53	0x3c14a230	0.009071872
54	0x3c3ecefe	0.0116460305
55	0x3c099a83	0.008398655
56	0x3c041e71	0.008063898
57	0x3bc58353	0.006027618
58	0x3b1aa79e	0.0023598443
59	0x3beaf050	0.0071697608
60	0x3be03300	0.006842017
61	0x3c07fd47	0.008300132
62	0x3c0ef1cc	0.008724641
63	0x3c25b544	0.010114018
64	0x3bd15188	0.006387893
65	0x38e59ce3	0.00010948793
66	0x3ba22c4f	0.0049491297
67	0x3a88bdbc	0.0010432522
68	0x3bb5b6b8	0.0055454634
69	0x3bed0630	0.0072334036
70	0x3bf9101c	0.0076007973
71	0x3bf17ba0	0.0073694736
72	0x3b6def53	0.0036305978
73	0xbbf43e91	-0.0074537476
74	0xbc639e01	-0.013892652
75	0xbb958b07	-0.0045636925
76	0x3f7e6404	0.9937136
77	0xbbd48599	-0.0064856526
78	0xbc657847	-0.014005727
79	0xbc4d4ad6	-0.012530049
80	0xbbd333a9	-0.0064453674

bias f4 [3]
0	0x3d98743c	0.07444045
1	0x3d921a1e	0.07133888
2	0x3d1044b2	0.035221763
