perturbe/data/perturbations/klothz.jpg/pert_model.pt (torch_old, 22595 bytes, 20 tensors)

weight f4 [3, 3, 3, 3]
000000 00 00 00 00 00 00 00 00 00 00 00 00 00 00 00 00
       0.0 0.0 0.0 0.0
000010 00 00 80 3f 00 00 00 00 00 00 00 00 00 00 00 00
       1.0 0.0 0.0 0.0
000020 00 00 00 00 00 00 00 00 00 00 00 00 00 00 00 00
       0.0 0.0 0.0 0.0
000030 00 00 00 00 00 00 00 00 00 00 00 00 00 00 00 00
       0.0 0.0 0.0 0.0
000040 00 00 00 00 00 00 00 00 00 00 00 00 00 00 00 00
       0.0 0.0 0.0 0.0
000050 00 00 00 00 00 00 00 00 00 00 00 00 00 00 00 00
       0.0 0.0 0.0 0.0
000060 00 00 00 00 00 00 00 00 00 00 00 00 00 00 00 00
       0.0 0.0 0.0 0.0
000070 00 00 00 00 00 00 00 00 00 00 00 00 00 00 00 00
       0.0 0.0 0.0 0.0
000080 00 00 00 00 00 00 00 00 00 00 00 00 00 00 00 00
       0.0 0.0 0.0 0.0
000090 00 00 00 00 00 00 00 00 00 00 00 00 00 00 00 00
       0.0 0.0 0.0 0.0
0000a0 00 00 80 3f 00 00 00 00 00 00 00 00 00 00 00 00
       1.0 0.0 0.0 0.0
0000b0 00 00 00 00 00 00 00 00 00 00 00 00 00 00 00 00
       0.0 0.0 0.0 0.0
0000c0 00 00 00 00 00 00 00 00 00 00 00 00 00 00 00 00
       0.0 0.0 0.0 0.0
0000d0 00 00 00 00 00 00 00 00 00 00 00 00 00 00 00 00
       0.0 0.0 0.0 0.0
0000e0 00 00 00 00 00 00 00 00 00 00 00 00 00 00 00 00
       0.0 0.0 0.0 0.0
0000f0 00 00 00 00 00 00 00 00 00 00 00 00 00 00 00 00
       0.0 0.0 0.0 0.0
000100 00 00 00 00 00 00 00 00 00 00 00 00 00 00 00 00
       0.0 0.0 0.0 0.0
000110 00 00 00 00 00 00 00 00 00 00 00 00 00 00 00 00
       0.0 0.0 0.0 0.0
000120 00 00 00 00 00 00 00 00 00 00 00 00 00 00 00 00
       0.0 0.0 0.0 0.0
000130 00 00 80 3f 00 00 00 00 00 00 00 00 00 00 00 00
       1.0 0.0 0.0 0.0
000140 00 00 00 00
       0.0

bias f4 [3]
000000 00 00 00 00 00 00 00 00 00 00 00 00
       0.0 0.0 0.0

weight f4 [3, 3, 3, 3]
000000 92 7f 28 bc e4 6e e4 bb f0 2b ca bc 78 d6 52 39
       -0.010284321 -0.006971227 -0.024679154 0.00020107056
000010 b6 e4 80 3f 89 b9 84 bc 8c 66 b4 3c 27 76 22 3c
       1.0069797 -0.016201751 0.022021554 0.009915865
000020 08 b2 68 3c d7 c7 a2 bc 33 e9 92 bc 53 5d b6 bc
       0.014202602 -0.019870682 -0.017933464 -0.022261297
000030 63 c2 81 bc 30 9c 79 bc 0c f5 7b bc cb ec 39 bc
       -0.015839761 -0.015234992 -0.015378248 -0.01134796
000040 96 06 02 bd ed 37 47 bc 17 16 ad bc ef 42 ad bc
       -0.031744562 -0.01215933 -0.021128697 -0.02115008
000050 ee c9 b2 bc b7 52 cd bc 2f 1e e9 bc b1 91 a6 bc
       -0.021824803 -0.025063856 -0.028456775 -0.020333143
000060 0b 8c 80 bc 2b ac e7 bc ca 9c 46 bc b9 18 36 bd
       -0.015691778 -0.028280338 -0.012122342 -0.04445717
000070 44 c8 ef bc d7 e6 3a bd 36 4a 61 bc 7c 10 9c 3c
       -0.029270299 -0.045630302 -0.013750603 0.01905083
000080 c0 13 bd bc 2c 61 1c 3c ce 81 d2 3c 1f 59 fb 3b
       -0.023080707 0.009544652 0.025696661 0.007670536
000090 94 bd 34 bd 9e 32 10 bd 7f fd 3f bd d7 67 e1 bc
       -0.04412611 -0.035204522 -0.046872612 -0.027515335
0000a0 3b a3 7c 3f e0 7a 04 bd 18 e0 d6 3b eb aa 34 3c
       0.9868657 -0.032343745 0.006557476 0.011027078
0000b0 ea dd 06 3c eb ab be bb 06 93 8d bc f6 a0 ba bc
       0.008231619 -0.005818834 -0.01728202 -0.02278183
0000c0 4f a2 9f bb f9 63 2f bc 48 fe 15 bc 34 ab f3 bb
       -0.0048716436 -0.010704988 -0.009154864 -0.0074361805
0000d0 25 c7 81 bc 97 47 7e bc 2b 67 3b bc 43 32 9b 3c
       -0.01584203 -0.015519998 -0.011438171 0.018944865
0000e0 0b 19 35 3a 40 ff 5d bc a9 69 ed 3c 86 b5 5c 3c
       0.0006908334 -0.013549626 0.028981047 0.013471013
0000f0 d8 e0 fd bc 98 c1 2c bc a4 3f 99 bc f4 2c 97 bc
       -0.030991003 -0.010544203 -0.018707104 -0.018454053
000100 82 2c 35 bc eb ee 0f bd c6 21 ce bc 4f ad 1f bc
       -0.011057975 -0.03513996 -0.025162589 -0.00974591
000110 78 26 20 bd 1c 83 1b bd 61 69 e7 bc 23 bc 31 bd
       -0.039099187 -0.037966833 -0.02824849 -0.04339231
000120 e4 43 ea bc 02 f6 c2 bc c2 07 1c bd 68 e6 d2 bc
       -0.028596826 -0.023798946 -0.038093336 -0.025744632
000130 05 b7 7c 3f 81 46 15 bd a2 44 f4 bc 64 98 7e bc
       0.98716766 -0.03644419 -0.029817883 -0.015539262
000140 14 de 01 bd
       -0.03170593

bias f4 [3]
000000 4e 73 0e 3d ca a1 81 bc 8a fc 0c 3d
       0.034777932 -0.015824217 0.034420528

weight f4 [3, 3, 3, 3]
000000 99 03 30 bc c7 a3 9b bb 66 00 d3 bc 79 13 1d bb
       -0.010743045 -0.0047497484 -0.025757026 -0.0023967905
000010 37 e7 80 3f 83 2d 9e bc 7b 6d a8 3c 3a 0e c8 3b
       1.0070561 -0.019308811 0.020560017 0.0061052116
000020 81 f5 21 3c 9a 1a a3 bc 9c 92 4e bc 37 40 ba bc
       0.009885193 -0.019910146 -0.012608197 -0.022735698
000030 6d 66 ac bc db 2d 68 bc 6e 2d 9c bc da f5 8e bc
       -0.021044934 -0.014171089 -0.019064631 -0.017451216
000040 c0 81 06 bd 7b 04 90 bc b2 51 bf bc dc 18 8d bc
       -0.032838583 -0.017580261 -0.023354385 -0.017223768
000050 3f ab b7 bc 9b a9 f1 bc 3e 9a d6 bc c3 66 ac bc
       -0.022420524 -0.02949982 -0.026196595 -0.021045094
000060 19 ba f0 bc d7 8a 1f bd ee fb cf bc 34 d6 38 bd
       -0.029385613 -0.038950767 -0.025388684 -0.045126155
000070 54 47 fc bc 27 a7 34 bd 7f f9 12 bc 89 f8 9f 3c
       -0.03079573 -0.04410472 -0.008970617 0.01952769
000080 d6 cc b3 bc d1 cd 8a 3c 48 83 f9 3c d9 be 8b 3c
       -0.02194826 0.016943844 0.030458108 0.017058777
000090 03 46 39 bd 6c e3 10 bd b1 92 3d bd 66 5e e6 bc
       -0.045232784 -0.035373136 -0.046282474 -0.028121185
0000a0 f2 89 7c 3f 9b df 01 bd 8c e0 03 3c 14 49 53 3c
       0.9864799 -0.031707387 0.008049142 0.012895841
0000b0 a7 38 54 3c a4 3a f1 bb 92 09 8d bc d4 9c be bc
       0.01295296 -0.007361727 -0.017216478 -0.02326814
0000c0 a8 69 03 bc c7 80 49 bc 05 1c 49 bc 16 47 87 bc
       -0.008020796 -0.012298769 -0.012274747 -0.016513389
0000d0 30 53 c2 bc 5e 95 f2 bc 81 a0 da bb 12 d2 50 3c
       -0.023721308 -0.02961224 -0.0066719656 0.012745397
0000e0 16 7b 89 bb 0d 55 68 3b b5 43 0c 3d 9d 9a ac 3c
       -0.004195581 0.0035451085 0.034244258 0.02106982
0000f0 30 5e 7b bb 9f 47 c3 3c b0 5a 95 3c 9c 90 b6 bc
       -0.00383557 0.023837863 0.01823172 -0.022285752
000100 db 15 b4 bc b3 66 35 bd a2 52 b3 bc 37 d9 55 bc
       -0.021983078 -0.044287395 -0.021889988 -0.013052276
000110 b4 d3 1e bd 61 7f fc bc aa 1f b1 bc 1b 13 24 bd
       -0.038776115 -0.030822458 -0.021621544 -0.040057283
000120 ba 40 d7 bc f6 19 d2 bc 1b be 15 bd 37 b2 ae bc
       -0.026275981 -0.025647145 -0.03655825 -0.021325214
000130 90 94 7c 3f fa 00 0f bd ec 60 8b bc ef c9 a9 bb
       0.9866419 -0.03491304 -0.01701399 -0.005181543
000140 8d eb 8f bc
       -0.017568374

bias f4 [3]
000000 a7 62 0c 3d f0 7b 26 bc f9 5f 25 3d
       0.03427377 -0.010161385 0.04037473

weight f4 [3, 3, 3, 3]
000000 66 08 44 bc d4 24 4c bb 6c 76 df bc 72 69 d7 bb
       -0.011964893 -0.003114988 -0.027278148 -0.0065738494
000010 a2 c2 80 3f 39 51 bf bc cb 7e 8c 3c 40 ed 91 b7
       1.0059397 -0.02335416 0.017150303 -1.7395825e-05
000020 c6 03 4d 3b 55 4d a0 bc 2b 7c e1 bb a9 d8 c0 bc
       0.0031282767 -0.019568125 -0.006881257 -0.023540812
000030 b7 3a d0 bc ce fc 59 bc 4a ab be bc 18 a0 aa bc
       -0.025418622 -0.013304902 -0.023275036 -0.020828292
000040 3e 22 fa bc 42 c9 aa bc 94 f6 c4 bc dd 77 61 bc
       -0.030533906 -0.02084792 -0.024043359 -0.013761488
000050 ac 1c be bc 21 63 fe bc 14 7f be bc ea 62 ad bc
       -0.023207031 -0.031053128 -0.023253955 -0.02116533
000060 9a e8 07 bd 1f a6 23 bd 84 5c ec bc d4 45 33 bd
       -0.03318081 -0.039953347 -0.028852709 -0.043767765
000070 96 38 01 bd 5a 6f 2c bd 88 89 9c ba 3d 63 a9 3c
       -0.031548105 -0.04209838 -0.0011942843 0.020677203
000080 a3 d4 a3 bc 96 04 cf 3c 44 88 14 3d 53 48 e6 3c
       -0.019998854 0.025270741 0.036262766 0.028110659
000090 f4 00 3b bd ee cf 11 bd 0e df 3a bd 0c 1a da bc
       -0.045655206 -0.035598688 -0.045622878 -0.026623748
0000a0 e8 b1 7c 3f 66 f2 f6 bc 3e 13 44 3c d4 2e 97 3c
       0.98708963 -0.030144881 0.011967478 0.018454947
0000b0 49 ea ae 3c be 52 e9 bb e2 49 81 bc 1e 7d aa bc
       0.02135195 -0.0071204593 -0.0157823 -0.020811614
0000c0 64 15 1c bc 2f c3 50 bc 4a 8e 55 bc 04 fd c2 bc
       -0.009526584 -0.012741848 -0.013034413 -0.023802288
0000d0 45 be f1 bc 2e 34 21 bd 2c f4 ce b9 4a 84 88 3b
       -0.029509673 -0.039356403 -0.00039473304 0.0041661607
0000e0 2c 53 10 bc 93 c2 e3 3c 0f 2c 1c 3d c1 94 d4 3c
       -0.008808892 0.027802741 0.038127955 0.025949838
0000f0 43 d0 32 3d 32 3d 4e 3d 00 fd 48 3d c0 1a cd bc
       0.043655645 0.05035133 0.049069405 -0.02503717
000100 32 14 fe bc a8 91 41 bd 95 ff 8a bc 91 97 7e bc
       -0.03101549 -0.04725805 -0.016967574 -0.015539066
000110 87 7e 10 bd 98 d9 72 bc 63 2d ef bb 65 74 78 bc
       -0.035276916 -0.014822386 -0.0072991117 -0.015164469
000120 ae a3 be bc bb 3c d7 bc 02 27 0a bd 75 be 99 bc
       -0.023271408 -0.026274076 -0.033728607 -0.018767575
000130 1b 03 7c 3f e9 15 0b bd 3f 7d 4f bc 21 35 db bb
       0.9844224 -0.033956442 -0.012664138 -0.006689683
000140 93 7d 61 bc
       -0.013762849

bias f4 [3]
000000 47 54 06 3d 2e 56 5b bb 7c 0e 3b 3d
       0.032795217 -0.0033468115 0.04566811

weight f4 [3, 3, 3, 3]
000000 2c 8b ae 3c 28 4c 93 3c 5c cb 46 bb c1 88 28 39
       0.021306597 0.01798065 -0.0030333614 0.00016072673
000010 1f ef 80 3f 04 35 b6 bc 4b 1f 73 3c 97 ab d3 3b
       1.0072974 -0.022242077 0.014839004 0.006459664
000020 01 c1 d8 3b 06 43 d6 3b 73 ba 0e bc 6f 36 a3 3c
       0.0066148047 0.0065387515 -0.008711445 0.019923417
000030 e2 fd 50 bc ce d3 be 3c 0d f3 69 bb 06 4b b9 bc
       -0.012755843 0.023294356 -0.0035697848 -0.022618782
000040 e4 2a 2b bc 38 0d 90 3c bd 3d 7e 3b 7f 26 d3 3b
       -0.010447238 0.017584428 0.0038794123 0.006443798
000050 ce 20 b8 3c fd ca 34 bc 4c 3b 9a bc 93 db 2a 3c
       0.02247658 -0.011034724 -0.018827103 0.010428327
000060 d4 24 6d bc 57 51 b3 bc f4 93 47 3c a9 2b 5c 3c
       -0.014474113 -0.021889372 0.012181271 0.013438144
000070 51 5e 12 3d 6d e7 f9 3b 01 fc ed bb 0f 31 0f 3d
       0.03573448 0.007626465 -0.007262707 0.034958895
000080 1c bf 2f bc 43 1f c9 3b b3 91 09 3d 79 05 1d 3c
       -0.010726716 0.00613776 0.033586215 0.009583824
000090 69 99 d1 bc c0 7c 02 bd a6 90 ad bc 04 77 ed bc
       -0.025585847 -0.031857252 -0.021187138 -0.028987415
0000a0 19 e7 7d 3f 40 6a 02 bd 46 60 9a bc 02 2b 8d bc
       0.9918075 -0.03183961 -0.018844735 -0.017232422
0000b0 c5 ae 3d bc ec 02 90 bc 48 5e 86 bc f3 1f 49 bc
       -0.011577313 -0.017579518 -0.016402379 -0.012275684
0000c0 f6 fd 4a bc c9 66 45 bc af 1e 64 3c a6 12 e9 bc
       -0.012389651 -0.012048432 0.013923331 -0.028451275
0000d0 c0 41 97 bc bb 67 be 3b 61 81 4e bc 37 57 88 bc
       -0.01846397 0.0058107055 -0.0126040885 -0.01664315
0000e0 97 ce e5 bb 52 9a 47 bc a7 e2 a7 3c 94 a8 8e 38
       -0.007013153 -0.012182789 0.020493818 6.802488e-05
0000f0 e0 b7 e9 3a 91 c6 9b 3c 98 9f ca 3c f6 46 99 bc
       0.0017831288 0.019015582 0.024734303 -0.018710595
000100 5c 4c f5 bc 36 14 32 bd 53 c9 17 bc 53 26 e5 3b
       -0.029943638 -0.043476306 -0.009264308 0.006993094
000110 b4 6d ce bc 38 a3 b1 bc 69 f5 14 bc 6b 69 12 bd
       -0.025198795 -0.021684274 -0.0090917135 -0.035745066
000120 8d 19 1b bc e9 cd 8e bc aa 52 9c bc a8 89 71 bb
       -0.009466541 -0.01743217 -0.019082386 -0.003685573
000130 7e 99 7d 3f 08 6b c0 bc a5 ca 32 bc 20 0f 81 bc
       0.99062335 -0.023488536 -0.010912572 -0.015754282
000140 4c 75 04 bd
       -0.032338426

bias f4 [3]
000000 e6 0e ec ba ef e8 d9 ba 14 b3 e1 3c
       -0.0018009811 -0.0016625206 0.027551211

weight f4 [3, 3, 3, 3]
000000 25 69 93 3c 80 6d 57 3c 21 d1 c2 bb c4 e0 07 bb
       0.017994473 0.013148665 -0.0059453403 -0.0020733336
000010 f1 a3 80 3f 0e 03 b8 bc 86 f6 4d 3c b2 cf 2e 3b
       1.0050031 -0.022462394 0.012570983 0.002667409
000020 f5 73 af 3b 6c 07 f9 3b 1c b5 1a bc 88 16 88 3c
       0.0053543993 0.0075997617 -0.009442594 0.016612306
000030 49 8a 03 bc ca fd c7 3c a9 ff 63 bb bb b9 73 bc
       -0.008028575 0.024413008 -0.0034789836 -0.014875825
000040 3a dc 9e bb 1e 0a 94 3c 48 fd 43 3b 81 4f 96 3b
       -0.0048480304 0.01807123 0.0029905606 0.0045871143
000050 a2 a8 9a 3c 76 38 25 bc 3e b9 8b bc 0e fd 01 3c
       0.018879239 -0.010084262 -0.017056104 0.007933868
000060 c4 c0 01 bc 88 7b 51 bc ae 33 89 3c 03 13 8d 3c
       -0.007919494 -0.0127858 0.016748276 0.01722098
000070 39 61 19 3d 94 c8 48 3c 5a 85 3d bb 8c be 11 3d
       0.037446234 0.012254853 -0.0028918595 0.03558211
000080 6f c7 ea bb d1 58 49 3c a6 54 0d 3d 0e 57 48 3c
       -0.0071648876 0.012289242 0.034504555 0.012227787
000090 70 3c b4 bc d6 b5 f1 bc 3c 77 70 bc 53 4b e3 bc
       -0.022001475 -0.029505651 -0.014676865 -0.027745878
0000a0 d3 5b 7e 3f 1c 50 ff bc ec c4 77 bc 9e df 50 bc
       0.9935886 -0.031166129 -0.015122633 -0.012748627
0000b0 c7 7e 0a bc a4 67 b9 bc 3b 77 a9 bc 4d e1 bb bc
       -0.008453078 -0.022632428 -0.020686736 -0.02293458
0000c0 dd d1 4c bc 11 56 46 bc a8 a2 ee 3b 99 1b f2 bc
       -0.012501207 -0.012105481 0.0072825737 -0.029554175
0000d0 a6 0a a7 bc 42 4f d5 bb a2 2e 7d bb c0 7c 27 bc
       -0.02039082 -0.0065096924 -0.0038632532 -0.010222614
0000e0 a2 c3 01 bb 8f ea f9 bb 1f ca a6 3c d3 98 f7 39
       -0.0019800444 -0.0076268385 0.02036005 0.00047225374
0000f0 03 ee 4e 3b 95 08 87 3c ab 51 b8 3c 02 36 48 bc
       0.0031574972 0.016483584 0.02249988 -0.012219908
000100 b5 36 c5 bc 60 9a 05 bd c6 ec e9 bb 47 9d 0e 3c
       -0.024073938 -0.032617927 -0.0071388213 0.00870449
000110 7b c9 9f bc 60 b5 a7 bc 75 fd 10 bc 69 2d fb bc
       -0.019505253 -0.020472229 -0.008849491 -0.030661302
000120 34 1f 19 bc c0 91 95 bc be c5 a6 bc e1 28 54 ba
       -0.009345818 -0.018257976 -0.020357963 -0.00080932496
000130 d4 03 7e 3f ea ac bf bc 9e 1f 18 bc 93 74 6a bc
       0.9922459 -0.023397882 -0.009284882 -0.01431002
000140 4e 97 01 bd
       -0.031638436

bias f4 [3]
000000 35 4d b0 b9 43 9c 66 ba 29 e4 f0 3c
       -0.0003362686 -0.00087970885 0.02940567

weight f4 [3, 3, 3, 3]
000000 d1 86 5c 3c 06 ae e7 3b 32 0f 1d bc 39 13 ab bb
       0.013459877 0.0070703058 -0.009586142 -0.0052207974
000010 f4 3e 80 3f 33 ee bc bc 53 eb 17 3c 4e 9a 02 bb
       1.0019212 -0.023062801 0.009272414 -0.0019928399
000020 c4 f5 59 3b 70 ce f1 3b dd 93 33 bc 08 e2 3d 3c
       0.003325806 0.0073793456 -0.010960546 0.011589535
000030 e2 74 9e bb 77 6d c6 3c 09 1d 89 bb 82 9c 15 bc
       -0.004835711 0.024222119 -0.0041843695 -0.009131553
000040 90 5a 9d ba 3c f1 90 3c cd 2d 53 3b 97 5f 9a 3b
       -0.0012005139 0.017693155 0.0032223344 0.004711102
000050 cd 72 8d 3c 01 b1 0b bc dd 78 6d bc e3 34 e7 3b
       0.017266655 -0.008526088 -0.014494148 0.007055865
000060 56 9b a9 ba ce 1b 75 bb f2 59 b3 3c 3d 32 a4 3c
       -0.001293997 -0.0037400606 0.021893475 0.020043487
000070 d8 f1 1e 3d 1f f6 81 3c 51 34 cf 3a ad cf 14 3d
       0.03880486 0.01586443 0.0015808438 0.036330868
000080 29 75 52 bb cd 33 8c 3c a5 af 0f 3d fb ed 66 3c
       -0.003211329 0.017114544 0.035079617 0.014094825
000090 03 7a 85 bc e3 e3 cc bc b3 63 ce bb d5 f4 ca bc
       -0.016293531 -0.025011009 -0.006298506 -0.024774948
0000a0 0a 25 7f 3f 93 59 f1 bc c4 49 27 bc 82 b8 ef bb
       0.9966589 -0.029461658 -0.010210458 -0.007315696
0000b0 c0 54 a0 bb 75 60 dc bc 5b b1 c4 bc c2 aa 04 bd
       -0.0048929155 -0.026901463 -0.02401035 -0.03238941
0000c0 a7 70 47 bc d9 2a 44 bc 69 2d 47 3a fd 4c f5 bc
       -0.0121728545 -0.011973106 0.0007598014 -0.029943937
0000d0 16 54 b3 bc 96 34 8b bc 5a 57 b3 3b b3 9e 1d bb
       -0.021890681 -0.016992848 0.0054730596 -0.002405089
0000e0 58 cd 88 3b 89 75 3d bb 61 1f a9 3c ce a1 cd 3a
       0.0041748695 -0.0028909168 0.020644845 0.001568848
0000f0 fb 0b 63 3b 4d b9 55 3c 69 2d a0 3c 75 8d 74 bb
       0.0034644592 0.013044667 0.019552903 -0.003731576
000100 9e 1c 84 bc 9e 39 8a bc 3f c7 5d bb 11 31 2e 3c
       -0.016126927 -0.016873177 -0.0033840684 0.0106318155
000110 11 73 39 bc 8f 79 95 bc 4f 5f 0a bc ac 56 bd bc
       -0.011318938 -0.01824644 -0.008445575 -0.023112617
000120 96 c9 22 bc cb ef 9f bc ad 0a b5 bc 8f 21 16 3a
       -0.009935757 -0.019523522 -0.022099817 0.00057270465
000130 9a 26 7e 3f f7 73 ca bc d2 8d 07 bc a9 17 5f bc
       0.9927765 -0.0247135 -0.008273559 -0.013616481
000140 89 82 00 bd
       -0.031374488

bias f4 [3]
000000 55 df 95 39 3c f0 2d b9 c9 14 01 3d
       0.0002858589 -0.0001658806 0.031513963

weight f4 [3, 3, 3, 3]
000000 bf e2 a2 3c 75 ea 96 3c f8 eb 0d 3c c5 e1 0a bc
       0.019883512 0.018422345 0.008662216 -0.008476679
000010 ac c5 7f 3f d0 2a 46 bc 0b aa dd 3a 6f 13 02 bc
       0.99911 -0.012095168 0.0016911639 -0.007939204
000020 a2 f9 2a 3c af ce a5 3c dc 62 13 3c 62 56 04 3d
       0.010435494 0.020240156 0.008995738 0.032308944
000030 8a f7 5a bb 66 e1 d6 3c f8 ad 9e 3b ee a8 6b bc
       -0.0033411705 0.026230525 0.004842516 -0.014383538
000040 6b 72 f9 bb 35 e5 a8 3c 58 de ba 3b 7b 22 d5 3b
       -0.0076125166 0.020617107 0.005702775 0.0065043545
000050 53 43 cd 3c 21 28 d6 bb 49 f8 2e bc 9f 92 5f 3c
       0.025056517 -0.0065355455 -0.010679313 0.013645797
000060 f7 98 04 3b 62 51 cc 3a fd 9b fb 3c e7 90 ac 3c
       0.0020232776 0.0015588219 0.03071403 0.021065189
000070 67 66 1d 3d 6c 02 aa 3c a7 71 b2 3a 1b 11 1a 3d
       0.038427737 0.020753108 0.0013614193 0.03761397
000080 03 28 87 3b 2e 31 4e 3c b8 5c 0c 3d 99 62 93 3c
       0.004124643 0.012584968 0.03426811 0.017991351
000090 92 fa 16 bc 9e 05 96 bc 35 a9 da 3b 2d 69 ca bc
       -0.009215014 -0.018313225 0.006673003 -0.024708355
0000a0 d4 27 80 3f 11 ba c6 bc df 44 64 bc b5 5b 0d bc
       1.0012155 -0.024258645 -0.013932436 -0.008627822
0000b0 50 18 38 bb fd b2 b0 bc c3 54 b2 bc 67 ff aa bc
       -0.0028090663 -0.021569723 -0.021768933 -0.020873738
0000c0 6e 6b 5e bc d1 d8 4a bc 67 3b 37 3b 63 09 0a bd
       -0.013575418 -0.012380795 0.002795899 -0.033700358
0000d0 d5 63 da bc 42 e0 b7 bc 63 5c 4c 3c a6 fb 8e 3b
       -0.026658932 -0.022445802 0.012473199 0.004363495
0000e0 f4 b3 7c 3c 6b 65 ca bb ad 24 25 3c 43 a1 cd ba
       0.015423764 -0.0061766407 0.010079545 -0.0015688319
0000f0 ed d7 29 3c d9 54 72 3c 70 1b a5 3c 1c f1 2f ba
       0.010366422 0.014790737 0.020154685 -0.00067116483
000100 43 a5 f5 bb 3f bb b2 3b 22 13 ab ba ab 7b 42 3c
       -0.0074965074 0.0054544504 -0.0013051967 0.011870305
000110 f9 36 4e ba 17 41 38 3b 5f e1 31 3c 33 e1 5d 3c
       -0.0007866468 0.0028114968 0.010856955 0.013542461
000120 8a 06 13 3b 03 a1 0d bc 29 fc d9 3b f1 88 14 3c
       0.0022434318 -0.008644345 0.0066523743 0.0090658525
000130 cb 62 7e 3f ac ef c9 bb 12 05 72 ba d7 78 13 bc
       0.99369496 -0.0061626043 -0.0009232323 -0.009000978
000140 29 1d 72 bc
       -0.01477746

bias f4 [3]
000000 d9 06 69 bc 4a a6 4e bb 01 d6 30 3d
       -0.014222824 -0.0031532221 0.04317284

weight f4 [3, 3, 3, 3]
000000 0a a8 6e 3c 30 e6 54 3c 45 ad 84 3b 0f 99 37 bc
       0.014566431 0.012994334 0.0040489757 -0.011205926
000010 1c 4b 7f 3f a3 d9 4a bc 44 aa 1c bb de 18 21 bc
       0.9972398 -0.01238099 -0.0023905197 -0.009832589
000020 c9 f3 03 3c 25 54 95 3c 64 9d f9 3b d3 28 de 3c
       0.008053728 0.0182286 0.0076176394 0.027119076
000030 fd 53 52 bb 4a 76 cf 3c 39 e0 8e 3b 50 96 57 bc
       -0.0032093518 0.02532496 0.0043602255 -0.013158396
000040 96 6f e7 bb dd 48 a1 3c 9f 18 2b 3c c3 3a 3e 3c
       -0.0070628626 0.019688064 0.010442882 0.01161069
000050 a8 f2 fb 3c d1 27 5f bb cf ba ea bb 75 9b a8 3c
       0.030755356 -0.0034050832 -0.0071633826 0.02058194
000060 c0 3a 4d 3c b8 04 68 3c 52 91 33 3d 40 a4 af 3c
       0.012526214 0.014161281 0.04383976 0.021440625
000070 a2 98 1e 3d db e7 ac 3c e0 75 8b 3b 07 57 1f 3d
       0.03871978 0.021106651 0.004255995 0.038901355
000080 7b f7 d7 3b 72 42 84 3c 6c cd 12 3d b4 9c 9e 3c
       0.0065907813 0.016144965 0.035840437 0.019361831
000090 3c f4 97 bb 9e e2 3a bc b7 3f 3a 3c 29 88 a5 bc
       -0.0046372693 -0.011406569 0.01136773 -0.020206528
0000a0 88 c5 80 3f b7 0a aa bc 46 c0 07 bc 0c 45 1b bb
       1.0060282 -0.020757062 -0.008285588 -0.0023692278
0000b0 13 91 70 3a f2 55 60 bc 86 da a5 bc c3 7c 81 bc
       0.0009176891 -0.013692366 -0.020245802 -0.015806561
0000c0 70 7d d0 bb e8 9a 37 bc e7 6d da 3b 4b 5d e1 bc
       -0.0063626096 -0.011206366 0.0066659334 -0.027510306
0000d0 64 16 be bc d9 81 6c bc 11 ab 61 3c 59 08 be 3b
       -0.023204036 -0.014435255 0.013773696 0.005799335
0000e0 ab 38 73 3c 5d e5 ad bb 7e 9d 1a 3c 96 33 57 bb
       0.014845054 -0.0053068832 0.009436963 -0.0032837144
0000f0 d3 e1 15 3c 9d ed 52 3c 10 c7 90 3c 81 18 6f 3b
       0.009148079 0.012874034 0.017673045 0.0036483111
000100 70 c2 47 bb 5c 8f 0e 3c d6 18 c7 39 d9 0a 39 3c
       -0.0030480884 0.008701172 0.00037974742 0.01129409
000110 5c 95 9a b8 88 fc 65 3b 5f b6 23 3c 0a 49 75 3c
       -7.3711126e-05 0.0035093147 0.009992211 0.014971027
000120 c4 e9 96 3b 15 f5 30 bc 66 ca 0b 3c a6 2b 4a 3c
       0.0046055038 -0.01080062 0.008532142 0.012339508
000130 63 9b 7d 3f e7 3e 17 bc bf 06 8f 3a eb 46 38 bc
       0.99065226 -0.009231306 0.0010912045 -0.011247377
000140 fb ac 83 bc
       -0.016073694

bias f4 [3]
000000 5b 52 80 bc 3c 37 8d bb 8d 6c 35 3d
       -0.01566427 -0.004309563 0.044292975

weight f4 [3, 3, 3, 3]
000000 6b 29 22 3c 4d f7 0d 3c 18 34 61 39 a9 00 5d bc
       0.00989757 0.008664918 0.00021477079 -0.013488927
000010 70 05 7f 3f 41 77 47 bc 4a 5e d3 bb f0 4f 29 bc
       0.9961767 -0.012174428 -0.006450449 -0.010334
000020 df ca bb 3b 09 4c 83 3c c5 45 de 3b e6 7c af 3c
       0.005730971 0.016027467 0.0067832195 0.02142186
000030 3d a8 65 bb f5 c3 c2 3c 1c 41 9c 3b 4a 4d 4e bc
       -0.0035042905 0.02377508 0.004768504 -0.012591669
000040 47 aa c6 bb 70 e1 95 3c b3 f6 70 3c b0 10 8d 3c
       -0.006062779 0.018295974 0.014707255 0.017219871
000050 8a 0e 0f 3d 02 c2 70 ba 6e b0 3f bb bc 93 de 3c
       0.034925975 -0.0009184183 -0.0029249447 0.027170055
000060 3d 10 ac 3c e0 91 c2 3c a9 41 56 3d fd c0 af 3c
       0.021003837 0.0237512 0.052308712 0.021454329
000070 bc 53 1f 3d e2 6a ae 3c a6 9b cb 3b 24 cd 24 3d
       0.038898215 0.0212912 0.006213623 0.0402347
000080 61 d1 10 3c 32 4b 96 3c 81 45 19 3d 63 10 aa 3c
       0.008838982 0.018346403 0.0374198 0.020759767
000090 10 ea 70 ba dd 0a 94 bb f6 50 77 3c c7 53 7d bc
       -0.00091901515 -0.0045178966 0.015094986 -0.015461869
0000a0 2b 66 81 3f a1 10 88 bc 28 d5 35 bb f1 e2 64 3b
       1.0109304 -0.016609492 -0.002774546 0.0034925307
0000b0 7f 79 98 3b 87 64 95 bb 67 04 85 bc 67 3e 1a bc
       0.0046531553 -0.004559103 -0.01623745 -0.009414292
0000c0 30 61 22 3b 18 a7 0b bc 7d 9d 61 3c 97 79 8d bc
       0.0024777167 -0.008523725 0.013770458 -0.017269893
0000d0 d1 17 8d bc 06 74 40 b9 b5 b1 54 3c 85 e0 be 3b
       -0.01722327 -0.00018353769 0.012981822 0.0058251047
0000e0 66 b4 45 3c 0f 51 bf bb 53 6e 11 3c 67 07 ca bb
       0.012066936 -0.0058385204 0.008876401 -0.006165433
0000f0 6d 1e ed 3b 90 2f 32 3c e5 d8 6c 3c 44 48 d3 3b
       0.007236293 0.010875598 0.014456009 0.0064478237
000100 18 39 82 b9 49 4b 1f 3c 15 a8 be 3a 7f bc 2c 3c
       -0.0002483807 0.009722539 0.0014545942 0.010542988
000110 0a b4 41 ba 94 b8 5c 3b f1 9d 0b 3c 4f 08 74 3c
       -0.00073891936 0.0033679353 0.008521543 0.014894559
000120 1a 99 f1 3b d5 71 5b bc f7 ca 12 3c f4 cc 60 3c
       0.0073729875 -0.013393839 0.008959523 0.01372074
000130 d0 ae 7c 3f 74 3f 82 bc 0e a2 0f 3b ef f5 51 bc
       0.9870424 -0.015899397 0.002191666 -0.012814983
000140 12 47 65 bc
       -0.013993995

bias f4 [3]
000000 85 aa 8c bc 81 7c bb bb 80 01 39 3d
       -0.017171154 -0.005721629 0.045167446
